…
2026-03-04 23:04:08,132 [INFO] __main__: DataLoaders created: train=35000, val=7500, test=7500
2026-03-04 23:04:08,132 [INFO] __main__: ============================================================
2026-03-04 23:04:08,132 [INFO] __main__: Step 2: Building PLE Model
2026-03-04 23:04:08,132 [INFO] __main__: ============================================================
2026-03-04 23:04:08,164 [INFO] __main__: Total params: 207,690
2026-03-04 23:04:08,164 [INFO] __main__: Trainable params: 207,690
2026-03-04 23:04:08,165 [INFO] __main__: Model architecture:
PLEModel(
  (embeddings): ModuleList(
    (0): Embedding(1001, 8)
    (1): Embedding(501, 8)
    (2): Embedding(51, 8)
    (3): Embedding(21, 8)
    (4): Embedding(101, 8)
    (5): Embedding(6, 8)
    (6): Embedding(31, 8)
    (7): Embedding(201, 8)
    (8): Embedding(101, 8)
    (9): Embedding(25, 8)
    (10): Embedding(8, 8)
    (11): Embedding(13, 8)
    (12-13): 2 x Embedding(51, 8)
    (14-15): 2 x Embedding(31, 8)
    (16): Embedding(11, 8)
    (17): Embedding(21, 8)
    (18): Embedding(16, 8)
    (19): Embedding(9, 8)
  )
  (dense_proj): Linear(in_features=10, out_features=80, bias=True)
  (extraction_layers): ModuleList(
    (0): ExtractionLayer(
      (task_experts): ModuleList(
        (0-1): 2 x ModuleList(
          (0-1): 2 x ExpertNetwork(
            (net): Sequential(
              (0): Linear(in_features=240, out_features=64, bias=True)
              (1): BatchNorm1d(64, eps=1e-05, momentum=0.1, affine=True, track_running_stats=True)
              (2): ReLU(inplace=True)
              (3): Dropout(p=0.1, inplace=False)
              (4): Linear(in_features=64, out_features=64, bias=True)
              (5): BatchNorm1d(64, eps=1e-05, momentum=0.1, affine=True, track_running_stats=True)
              (6): ReLU(inplace=True)
            )
          )
        )
      )
      (shared_experts): ModuleList(
        (0): ExpertNetwork(
          (net): Sequential(
            (0): Linear(in_features=240, out_features=64, bias=True)
            (1): BatchNorm1d(64, eps=1e-05, momentum=0.1, affine=True, track_running_stats=True)
            (2): ReLU(inplace=True)
            (3): Dropout(p=0.1, inplace=False)
            (4): Linear(in_features=64, out_features=64, bias=True)
            (5): BatchNorm1d(64, eps=1e-05, momentum=0.1, affine=True, track_running_stats=True)
            (6): ReLU(inplace=True)
          )
        )
      )
      (gates): ModuleList(
        (0-1): 2 x GateNetwork(
          (fc): Linear(in_features=240, out_features=3, bias=False)
        )
      )
    )
    (1): ExtractionLayer(
      (task_experts): ModuleList(
        (0-1): 2 x ModuleList(
          (0-1): 2 x ExpertNetwork(
            (net): Sequential(
              (0): Linear(in_features=64, out_features=64, bias=True)
              (1): BatchNorm1d(64, eps=1e-05, momentum=0.1, affine=True, track_running_stats=True)
              (2): ReLU(inplace=True)
              (3): Dropout(p=0.1, inplace=False)
              (4): Linear(in_features=64, out_features=64, bias=True)
              (5): BatchNorm1d(64, eps=1e-05, momentum=0.1, affine=True, track_running_stats=True)
              (6): ReLU(inplace=True)
            )
          )
        )
      )
      (shared_experts): ModuleList(
        (0): ExpertNetwork(
          (net): Sequential(
            (0): Linear(in_features=64, out_features=64, bias=True)
            (1): BatchNorm1d(64, eps=1e-05, momentum=0.1, affine=True, track_running_stats=True)
            (2): ReLU(inplace=True)
            (3): Dropout(p=0.1, inplace=False)
            (4): Linear(in_features=64, out_features=64, bias=True)
            (5): BatchNorm1d(64, eps=1e-05, momentum=0.1, affine=True, track_running_stats=True)
            (6): ReLU(inplace=True)
          )
        )
      )
      (gates): ModuleList(
        (0-1): 2 x GateNetwork(
          (fc): Linear(in_features=64, out_features=3, bias=False)
        )
      )
    )
  )
  (task_towers): ModuleList(
    (0-1): 2 x Sequential(
      (0): Linear(in_features=64, out_features=32, bias=True)
      (1): BatchNorm1d(32, eps=1e-05, momentum=0.1, affine=True, track_running_stats=True)
      (2): ReLU(inplace=True)
      (3): Dropout(p=0.1, inplace=False)
      (4): Linear(in_features=32, out_features=16, bias=True)
      (5): ReLU(inplace=True)
      (6): Linear(in_features=16, out_features=1, bias=True)
    )
  )
  (mask_reconstructor): Sequential(
    (0): Linear(in_features=64, out_features=128, bias=True)
    (1): ReLU(inplace=True)
    (2): Linear(in_features=128, out_features=240, bias=True)
  )
)
2026-03-04 23:04:09,812 [INFO] __main__: ============================================================
2026-03-04 23:04:09,812 [INFO] __main__: Step 3: Training
2026-03-04 23:04:09,812 [INFO] __main__: ============================================================
2026-03-04 23:04:09,812 [INFO] src.utils.trainer: ================================================================================
…
